graph_matching_model.pth (torch, 20984 bytes, 4 tensors)

conv1.bias f4 [64]
0	0xbd28c48d	-0.04120307
1	0x3c0783ea	0.008271197
2	0x3cf8868a	0.03033759
3	0x3d4d85af	0.05017632
4	0x3d409179	0.047013734
5	0x00000000	0.0
6	0x3d346466	0.04404106
7	0x3d91fc10	0.07128155
8	0x3c340ff5	0.010990133
9	0xbcfa5149	-0.030556338
10	0x3e00f376	0.12592873
11	0x3d5a1bfe	0.05324935
12	0x3d5a8b14	0.05335529
13	0x3d0cf8d6	0.034416996
14	0x3d83dfe4	0.06439188
15	0x3c52c1ad	0.012863559
16	0x3da1e03a	0.07904096
17	0xbd36e00e	-0.04464727
18	0x3c64c6d9	0.013963425
19	0x3d10a40e	0.035312705
20	0x00000000	0.0
21	0x3bac5eca	0.005260323
22	0xbd2b0fc5	-0.041763086
23	0xbc873bf9	-0.01650809
24	0xbcc101c9	-0.023560422
25	0xbd909e50	-0.07061446
26	0x3df299fd	0.11845777
27	0xbdb9879c	-0.090590686
28	0x3d52dc04	0.051479355
29	0xbcc1c241	-0.023652198
30	0x3c43231b	0.011910225
31	0x3d5d8724	0.05408396
32	0x3ba15bc2	0.0049242685
33	0xbcbd334a	-0.023095746
34	0x3cbbf9f2	0.022946332
35	0x3d908085	0.07055763
36	0x00000000	0.0
37	0xbd7cde7b	-0.06173561
38	0x3d0e947a	0.034809567
39	0x3c831526	0.016001295
40	0x3cd5db4d	0.026105547
41	0xbdd154bd	-0.10221241
42	0x3d96a781	0.073561676
43	0x3d102ef2	0.03520102
44	0xbd82da31	-0.06389273
45	0x3b893d65	0.004188227
46	0x3dbf58d4	0.093431145
47	0xbd21efa8	-0.039535195
48	0xbd2fc1c4	-0.0429094
49	0x3d6f6cb0	0.05845326
50	0x3d9fc334	0.07800904
51	0xbb822e1a	-0.003972781
52	0x3d854e26	0.06509046
53	0x00000000	0.0
54	0x3c9ca137	0.019119842
55	0x3d7fc32a	0.062441982
56	0x390c3b52	0.00013373539
57	0xbca9adc2	-0.020712737
58	0xbcf47129	-0.029839115
59	0x3db65ad8	0.08904046
60	0x3d01a279	0.031649087
61	0x3d82a144	0.06378415
62	0x3d76fa78	0.06029746
63	0x3d659a95	0.056055624

conv1.lin.weight f4 [64, 7]
0	0x3e30d224	0.17267662
1	0xbdb45c1a	-0.088066295
2	0xbe8c2f79	-0.2737997
3	0xbecb7807	-0.3974001
4	0xbe8c8c77	-0.27450916
5	0xbed77dc5	-0.42088142
6	0xbe39bfd0	-0.18139577
7	0xbec0cde7	-0.3765709
8	0xbe9125cc	-0.2834915
9	0x3deb3f6c	0.11486706
10	0x3f55008f	0.8320398
11	0x3e0cc0ba	0.13745394
12	0xbe4b550c	-0.19856662
13	0xbe18c15b	-0.1491751
14	0x3e009c58	0.1255964
15	0xbeaf90d7	-0.34290192
16	0xbefc9a7e	-0.49336618
17	0xbecb6d98	-0.3973205
18	0xbe1064a0	-0.14100885
19	0x3dcfd800	0.101486206
20	0xbc1cf8e4	-0.0095808245
21	0xbd6989c6	-0.057016157
22	0xbe3c1aa7	-0.18369542
23	0x3eb39fbe	0.3508281
24	0x3ed977aa	0.4247411
25	0xbe81532a	-0.25258762
26	0x3ec6bb79	0.38814905
27	0xbdd35f64	-0.10320929
28	0xbd49e29b	-0.049288373
29	0x3cef4abf	0.029210446
30	0x3db749a9	0.089495964
31	0xbe4d127e	-0.20026585
32	0xbd843be9	-0.064567395
33	0x3ec72845	0.3889791
34	0x3e9b3c22	0.30319315
35	0xbe74be75	-0.23900779
36	0xbe64cbef	-0.2234342
37	0xbd76dcee	-0.06026929
38	0x3d684ba3	0.056712758
39	0xbd4ea511	-0.05045039
40	0x3dbd5468	0.09244615
41	0xbe41c572	-0.18922976
42	0x3d1787c4	0.03699471
43	0x3e1f9491	0.15584017
44	0x3e98317e	0.2972526
45	0x3ed3a65e	0.41337866
46	0xbe633b08	-0.22190487
47	0x3e734b43	0.23759179
48	0xbe65d738	-0.2244538
49	0x3e15890f	0.14603065
50	0xbf012e32	-0.50461113
51	0xbf2e8e45	-0.68185836
52	0xbf1413c1	-0.5784264
53	0x3e41ecb6	0.18937954
54	0xbe8b2568	-0.27176976
55	0xbe57c6d6	-0.21071944
56	0x3e966770	0.29375792
57	0xbe72af5c	-0.23699707
58	0xbf5abd94	-0.85445523
59	0xbf3e00fd	-0.7422026
60	0xbddc6105	-0.107606925
61	0xbe536c08	-0.2064668
62	0x3e3d76c7	0.18502341
63	0x3d31f42a	0.043445744
64	0xbe2d3660	-0.16915274
65	0x3e321053	0.1738904
66	0xbe33a91f	-0.17544983
67	0xbe2bf8f9	-0.16794194
68	0xbe2eca9e	-0.1706948
69	0x3e135aee	0.14390156
70	0xbe09f811	-0.13473536
71	0x3e63a23f	0.2222986
72	0xbed53376	-0.41640824
73	0x3f1910e7	0.59791416
74	0x3e447dcc	0.19188613
75	0x3ef7644e	0.48318714
76	0x3e126fe8	0.14300501
77	0xbeceb8ef	-0.40375468
78	0xbd7afe07	-0.061277416
79	0x3e60b3ae	0.21943542
80	0x3f429058	0.760015
81	0x3e0e96dd	0.13924737
82	0x3d4a6531	0.04941291
83	0x3dac1869	0.08403093
84	0xbed7cf75	-0.42150465
85	0x3e44fdd2	0.1923745
86	0x3ea4f89f	0.32220933
87	0x3f527284	0.82205987
88	0x3cd06d81	0.02544284
89	0x3dd360ed	0.103212215
90	0xbd11c3ca	-0.03558711
91	0xbeb427cd	-0.35186616
92	0xbc28f3e2	-0.010312052
93	0x3eab0ddb	0.33409008
94	0x3d1f0afe	0.038828842
95	0x3de8faf8	0.113759935
96	0x3ceac542	0.028658513
97	0x3e2660c2	0.16247848
98	0xbeefb8e2	-0.46820742
99	0xbd5ce7fc	-0.053932175
100	0x3e954832	0.29156643
101	0x3f5e217f	0.8676986
102	0x3d1dc8ae	0.03852146
103	0xbc64564a	-0.013936589
104	0x3df9e390	0.12201607
105	0xbcdf18da	-0.02723353
106	0x3f0b6416	0.54449594
107	0xbf00e736	-0.503528
108	0x3f1ea1a9	0.61965424
109	0x3df540b1	0.119752295
110	0xbe2f1f58	-0.171018
111	0xbe0dbe90	-0.13842225
112	0x3c9e6399	0.019334601
113	0x3e86e68a	0.26347762
114	0x3da68989	0.081317015
115	0x3ed735ad	0.4203314
116	0xbe94baa5	-0.29048648
117	0x3ead1606	0.33805865
118	0x3f015e14	0.50534177
119	0x3d171bd4	0.036891773
120	0x3e244976	0.16043648
121	0x3b844d86	0.004037562
122	0xbdd7211d	-0.10504363
123	0xbcf2f53e	-0.029657956
124	0x3ec36346	0.38161677
125	0xbe2490a9	-0.16070808
126	0xbc75805f	-0.014984219
127	0x3e4ccfee	0.20001194
128	0xbe3edb2c	-0.18638295
129	0x3f21903b	0.63110703
130	0xbdd072d8	-0.10178155
131	0xbe3be4cc	-0.18348998
132	0x3ea86d84	0.32896054
133	0x3e94742e	0.28994888
134	0xbe90e45c	-0.28299224
135	0xbf6bf3d4	-0.9216893
136	0xbf4cf2ee	-0.8005818
137	0xbe76cc43	-0.24101357
138	0xbe292bf2	-0.1652067
139	0xbc0a4e2c	-0.008441489
140	0xbe0b023b	-0.1357507
141	0xbd494724	-0.04914011
142	0xbe807a8f	-0.25093505
143	0xbe3da93a	-0.18521586
144	0xbe820e69	-0.2540162
145	0xbca14718	-0.01968722
146	0xbdc76c5f	-0.09737467
147	0x3e270307	0.16309749
148	0xbe09ed49	-0.13469423
149	0xbf011671	-0.5042487
150	0xbed48dab	-0.41514334
151	0x3e2a1d03	0.1661263
152	0xbe2bb667	-0.167688
153	0xbeac3bba	-0.33639318
154	0xbde32a85	-0.11092094
155	0xbe58d383	-0.21174435
156	0xbc9a4749	-0.01883282
157	0xbe7e8d88	-0.24858677
158	0xbe7ab490	-0.24482942
159	0xbd4e8e36	-0.05042859
160	0x3e1d066c	0.15334481
161	0x3d73558a	0.05940775
162	0xbda85586	-0.08219437
163	0xbe09b69f	-0.1344857
164	0xbe53510a	-0.20636383
165	0xbe32c155	-0.17456563
166	0xbe8625a0	-0.2620058
167	0xbdaa3a43	-0.08311894
168	0x3d4a0773	0.04932351
169	0xbe0fb8f2	-0.14035395
170	0x3e135d74	0.14391118
171	0x3de7b724	0.11314228
172	0x3e455fdc	0.19274849
173	0xbe550850	-0.20803952
174	0x3c9be9ae	0.019032326
175	0x3e45639b	0.19276278
176	0x3ccb63bc	0.02482783
177	0x3da901ea	0.08252318
178	0xbc0f66bb	-0.00875252
179	0x3e9d4852	0.3071924
180	0xbe9dfc92	-0.30856758
181	0xbdbe4bec	-0.09291825
182	0xbe27a823	-0.16372733
183	0x3e39d1b6	0.18146405
184	0xbebfff50	-0.37499475
185	0xbd5b411f	-0.0535289
186	0xbe55b2c2	-0.20868972
187	0xbe923b1e	-0.28560728
188	0x3f26bc84	0.651314
189	0x3e3671ca	0.17816845
190	0xbd64b350	-0.05583507
191	0xbe9c2d5e	-0.30503362
192	0xbd13af96	-0.036056124
193	0x3daf0ff2	0.08547963
194	0xbede3788	-0.43401742
195	0xbe13889d	-0.14407583
196	0x3e3f6e07	0.18694316
197	0xbe78e3d9	-0.24305667
198	0xbf3b3e9c	-0.7314241
199	0xbf198704	-0.5997164
200	0x3e0a0d94	0.13481742
201	0xbe76185b	-0.24032728
202	0xbe1a16b2	-0.1504772
203	0x3cdfcbfb	0.027318945
204	0xbdf4dd4a	-0.1195627
205	0x3e2d7089	0.1693746
206	0xbe461150	-0.19342542
207	0x3ea2af43	0.3177434
208	0x3e8b9a14	0.2726599
209	0x3eb09379	0.34487513
210	0xbc770961	-0.01507792
211	0x3ebc88bc	0.3682307
212	0xbea25778	-0.31707358
213	0x3f40d5b5	0.7532609
214	0x3e7310cd	0.23736878
215	0xbe916219	-0.28395155
216	0xbde856f5	-0.11344711
217	0xbd63a60b	-0.055578273
218	0xbee5daf2	-0.44893605
219	0x3e56b464	0.20967251
220	0xbe11a5bd	-0.1422338
221	0xbe23a38d	-0.15980358
222	0xbe14a2d6	-0.14515242
223	0x3f5b244e	0.8560227
224	0x3ea02c9d	0.31284037
225	0xbd0bb805	-0.03411104
226	0xbf631678	-0.8870616
227	0xbf43ab30	-0.76433086
228	0xbed58f70	-0.41710997
229	0xbed68fce	-0.4190659
230	0xbe56cbc7	-0.20976172
231	0x3e52a5f4	0.20571119
232	0xbe1a1ec1	-0.15050794
233	0xbf066add	-0.5250681
234	0xbedc1bec	-0.42990053
235	0x3ec35044	0.38147175
236	0xbeea9060	-0.45813274
237	0xbe00961b	-0.1255726
238	0xbeda0eb4	-0.42589343
239	0xbe09f1ca	-0.13471141
240	0xbd1f7d75	-0.038938005
241	0x3f66249a	0.898996
242	0x3e1280de	0.14306971
243	0x3bda95e5	0.006670701
244	0xbdc722f4	-0.09723464
245	0xbeebc1b7	-0.4604623
246	0xbd6adf07	-0.0573416
247	0x3e7f6f60	0.2494483
248	0x3f53ad79	0.82686573
249	0xbdf6326f	-0.12021338
250	0x3d5c9985	0.053857345
251	0xbe8df0e3	-0.27722844
252	0xbe82aa48	-0.2552054
253	0xbd6782cd	-0.056521226
254	0xbdfec116	-0.12439172
255	0xbe364a86	-0.17801866

conv2.bias f4 [64]
0	0x3d65ac66	0.056072615
1	0xbda751a4	-0.081698686
2	0x3d3369a2	0.04380191
3	0x3da3246d	0.07965932
4	0xbd895130	-0.067049384
5	0xbd861627	-0.06547194
6	0xbccaa23e	-0.024735566
7	0xbcd14b3e	-0.025548574
8	0x3d116d54	0.035504654
9	0xbd71da55	-0.05904611
10	0xbd3ebb24	-0.04656519
11	0xbcb0ccb5	-0.021581987
12	0xbd86d291	-0.06583131
13	0x3d7cfd20	0.061764836
14	0xbd456a76	-0.048197232
15	0x3d60d1fa	0.05488775
16	0xbd41bc04	-0.047298446
17	0xbd378107	-0.044800784
18	0x3d4b8692	0.049688883
19	0xbd691c7e	-0.056911938
20	0x3d31e127	0.043427613
21	0xbd6a5b88	-0.057216197
22	0xbd3a30d7	-0.045456734
23	0x3d73035c	0.059329376
24	0xbd55b37c	-0.052173123
25	0x3d68a6a0	0.05679953
26	0x3d5cbca6	0.053890847
27	0xbceb98f2	-0.028759453
28	0xbd913d98	-0.07091826
29	0x3d6b48aa	0.057442345
30	0x3d8396f3	0.06425276
31	0x3d68737f	0.05675077
32	0x3d6b80b3	0.057495784
33	0x3d6373ad	0.05553024
34	0x3d5fb60d	0.054616977
35	0xbd0a46b2	-0.033758827
36	0xbd8ef635	-0.06980554
37	0xbd9965f5	-0.0749015
38	0xbd88d5c6	-0.06681399
39	0xbd193ee7	-0.037413504
40	0x3d143527	0.036183503
41	0xbd900608	-0.070324
42	0x3cf3c53f	0.02975714
43	0xbd442bac	-0.04789321
44	0xbd562a3c	-0.05228637
45	0x3d3a51fb	0.04548834
46	0xbd3a455f	-0.045476314
47	0x3d36b755	0.044608433
48	0xbd243d38	-0.040097445
49	0xbd33a254	-0.04385598
50	0x3d621c98	0.05520305
51	0x3d7764c5	0.060398836
52	0xbd878307	-0.06616788
53	0x3d5ebe67	0.0543808
54	0xbd27ca57	-0.04096445
55	0x3d5487da	0.05188737
56	0x3da93f42	0.082640186
57	0xbd55503b	-0.052078467
58	0x3d75987e	0.05995988
59	0xbd546abf	-0.051859614
60	0x3d6d2eed	0.05790608
61	0xbcb5c13e	-0.022186872
62	0x3d032d89	0.032025848
63	0xbd2ccb60	-0.04218614

conv2.lin.weight f4 [64, 64]
0	0xbe07ebfb	-0.13273613
1	0xbf933886	-1.1501625
2	0xbe4347bb	-0.19070332
3	0x3d37a75e	0.04483735
4	0x3e2d6d5a	0.16936246
5	0xbd7fb72f	-0.062430557
6	0x3e926470	0.28592253
7	0xbdc2330c	-0.09482393
8	0xbe8ea2f2	-0.27858692
9	0x3e606b97	0.21916042
10	0x3eb8bde5	0.36082378
11	0xbe43af93	-0.19109945
12	0xbd95a636	-0.07307093
13	0xbda7cb55	-0.081930794
14	0xbeef7871	-0.46771577
15	0x3d5b7a8e	0.053583674
16	0xbdbe5744	-0.09293988
17	0x3e43b3b0	0.19111514
18	0x3e9ac417	0.3022773
19	0xbc44bae1	-0.012007446
20	0x3d5a866d	0.053350855
21	0x3cb400f1	0.021973105
22	0xbd878f47	-0.06619125
23	0x3e38b65e	0.18038318
24	0x3e821bff	0.25411984
25	0xbe297c24	-0.16551262
26	0x3eaff948	0.34369874
27	0xbe32cd6a	-0.17461172
28	0xbbe19b97	-0.006885003
29	0x3e37e560	0.17958593
30	0x3e500039	0.20312585
31	0x3edb0e06	0.42784137
32	0xbe08cb29	-0.1335875
33	0x3d8bc7aa	0.06825192
34	0xbf8eec0c	-1.1165786
35	0xbe77125f	-0.24128102
36	0x3e064ed7	0.13116013
37	0x3ddfa689	0.10920436
38	0x3e6e260d	0.23256703
39	0x3eb1ab84	0.3470117
40	0xbe9f1430	-0.3107009
41	0xbe2525cf	-0.16127704
42	0x3f53a385	0.82671386
43	0x3e28c37f	0.16480826
44	0x3f6e292e	0.93031585
45	0x3edf049e	0.4355821
46	0x3e9a8bf2	0.30184895
47	0x3ebd5dfd	0.3698577
48	0xbdae7edd	-0.08520291
49	0xbcbf9410	-0.023386031
50	0xbdc80e94	-0.097684056
51	0x3ee6d3a1	0.45083335
52	0x3eaba982	0.33527762
53	0x3e26f5d1	0.16304709
54	0xb8cf8670	-9.89557e-05
55	0xbe5944b5	-0.21217616
56	0xbe876092	-0.26440865
57	0x3dce997d	0.10087869
58	0xbdb089d9	-0.08620042
59	0xbe5bec2a	-0.21476808
60	0x3e84c9e9	0.25935295
61	0x3e3e3eb9	0.18578614
62	0xbdbb2f70	-0.09139907
63	0xbeb703fd	-0.3574523
64	0x3d690075	0.0568852
65	0x3f818535	1.0118777
66	0xbde7a948	-0.11311585
67	0xbe8a3d6c	-0.26999986
68	0xbe88ae0d	-0.2669529
69	0x3e560291	0.20899417
70	0x3dd53bb4	0.10411778
71	0x3ea0fca2	0.31442744
72	0xbc94dde9	-0.018172221
73	0xbd49dc27	-0.04928222
74	0xbe9de1a8	-0.30836225
75	0x3e11410c	0.1418497
76	0x3d80ace3	0.062829755
77	0x3e71e573	0.23622684
78	0x3eb1d5aa	0.34733325
79	0xbe8eefb4	-0.27917254
80	0x3dc7388e	0.09727584
81	0xbd7c28c8	-0.06156233
82	0xbdc18964	-0.09450033
83	0x3e3f4d37	0.18681799
84	0xbd07ce3d	-0.03315567
85	0x3e2f7a86	0.17136583
86	0x3e3d739d	0.18501134
87	0x3c87ba1a	0.016568232
88	0xbd887d74	-0.06664553
89	0xbd55029e	-0.05200445
90	0xbeb442d6	-0.35207242
91	0x3dbe6be0	0.09297919
92	0x3e1ce593	0.1532195
93	0xbdd2cd0e	-0.10293017
94	0xbe20ae62	-0.15691522
95	0xbf0ab640	-0.5418434
96	0x3d6a01c2	0.057130583
97	0x3e8870bb	0.26648507
98	0x3f941331	1.1568357
99	0x3ec8633d	0.39138213
100	0xbe30aed6	-0.17254195
101	0x3de97d0b	0.11400803
102	0xbe1eb546	-0.15498838
103	0xbed17aee	-0.409141
104	0xbdb8994e	-0.090136155
105	0x3dc4b495	0.09604756
106	0xbf2d806f	-0.677741
107	0xbe77f30e	-0.24213812
108	0xbf6bed1d	-0.9215868
109	0xbda5fe17	-0.081051044
110	0xbe9b854d	-0.30375138
111	0xbe069f2f	-0.13146661
112	0x3c89cd02	0.016821388
113	0x3e2870b6	0.16449246
114	0x3e2d2f22	0.16912511
115	0xbd86ec91	-0.0658809
116	0xbe200162	-0.15625528
117	0x3b44faed	0.003005679
118	0x3b4ae4eb	0.00309592
119	0x3d899b1d	0.06719039
120	0x3c99cc19	0.01877408
121	0x3dc8b527	0.09800177
122	0x3c405dcd	0.011741114
123	0x3e2407bd	0.16018577
124	0x3a946daf	0.0011324192
125	0xbdf447c0	-0.11927748
126	0x3ea0fc9d	0.3144273
127	0x3dff6131	0.1246971
128	0xbd5e79cb	-0.05431537
129	0xbf956716	-1.1672084
130	0xbd8db87d	-0.06919954
131	0x3e597b45	0.2123843
132	0x3da0955f	0.0784099
133	0x3e199718	0.14999044
134	0x3e086df0	0.13323188
135	0xbe1b28f9	-0.15152349
136	0xbc37af6b	-0.0112112565
137	0xbe16debc	-0.14733404
138	0x3ef2eefb	0.47447953
139	0xbe997de5	-0.29978862
140	0xbea6a8ab	-0.32550558
141	0x3d91f5da	0.071269706
142	0xbed14329	-0.40871552
143	0x3dd76ac3	0.1051841
144	0x3e160270	0.14649367
145	0xbe34d1aa	-0.17658105
146	0x3e056a4d	0.13028832
147	0xbe97ad19	-0.2962425
148	0x3df8ef55	0.12155024
149	0xbe050dcf	-0.12993549
150	0xbe1090ca	-0.14117733
151	0xbe12fc2b	-0.14354007
152	0x3e3b9305	0.18317802
153	0x3de71475	0.11283199
154	0xbd932214	-0.07184234
155	0x3df279f1	0.11839665
156	0xbdfdc464	-0.12390974
157	0xbe04ee34	-0.12981492
158	0x3e8e1643	0.2775136
159	0x3e3788de	0.17923304
160	0xbe7e3f68	-0.24828875
161	0xbd63bd64	-0.05560054
162	0xbf947a89	-1.1599895
163	0xbe9d5551	-0.30729154
164	0x3df286f1	0.11842144
165	0xbe25a36d	-0.16175623
166	0x3cad4954	0.02115313
167	0x3c9dc170	0.019257277
168	0x3dca830f	0.09888279
169	0xbd220a06	-0.03956034
170	0x3f00a866	0.50256956
171	0xbdfddd70	-0.123957515
172	0x3f472757	0.777944
173	0x3e8b275d	0.2717847
174	0x3f093f96	0.5361265
175	0x3de9aad6	0.114095375
176	0xbde18a48	-0.11012703
177	0x3f1fc4ac	0.6240947
178	0xbe93c2dd	-0.28859606
179	0x3e05f817	0.1308292
180	0x3ea52d39	0.32261065
181	0x3d88ee7a	0.06686111
182	0x3d4fb9fa	0.05071447
183	0x3de8d0f6	0.11367981
184	0xbe7a46fb	-0.2444114
185	0xbdcea0b1	-0.10089243
186	0xbe0dafb9	-0.13836564
187	0xbe9fa688	-0.3118174
188	0x3e27b17c	0.16376299
189	0x3d915ded	0.07097993
190	0x3e65b417	0.2243198
191	0xbeb24f98	-0.3482635
192	0xbe3396f0	-0.17538047
193	0xbfa243dc	-1.2676959
194	0xbe640de7	-0.22270928
195	0x3e5950c1	0.21222211
196	0x3c719372	0.014744626
197	0x3e37576b	0.17904441
198	0x3e79b11a	0.24383965
199	0xbdb41a44	-0.08794072
200	0xbe85fca4	-0.26169312
201	0x3ce8077b	0.02832388
202	0x3f1831ee	0.59451187
203	0xbe99c11a	-0.30030137
204	0xbea9f6df	-0.3319616
205	0x3d16c014	0.036804274
206	0xbee6bd94	-0.45066512
207	0x3eeda3cb	0.46414027
208	0x3df580d0	0.1198746
209	0xbc2d7128	-0.010586061
210	0x3f0a235a	0.5396019
211	0xbe84b767	-0.25921175
212	0x3e4a1ac9	0.1973678
213	0xbe4845d0	-0.19557881
214	0xbe1a9f4b	-0.15099828
215	0xbe03b48f	-0.12861846
216	0x3dfd3dea	0.12365325
217	0x3e2ca507	0.16859828
218	0x3e9bd5e9	0.30436638
219	0x3e0dc960	0.1384635
220	0xbe9eba10	-0.3100133
221	0xb9ca7656	-0.0003861661
222	0x3e1848b0	0.14871478
223	0x3eddd5a2	0.4332705
224	0x3d9b5530	0.075846076
225	0xbdd99f78	-0.106261194
226	0xbf88393c	-1.0642467
227	0xbe9187d3	-0.28423938
228	0x3e38b970	0.18039489
229	0xbc9fdda2	-0.019514862
230	0x3eb6d357	0.35708115
231	0x3f0205ba	0.5078999
232	0x3dac86a4	0.08424118
233	0xbe0eccc1	-0.13945295
234	0x3f0599f4	0.5218804
235	0x3dda6347	0.10663467
236	0x3fae90e3	1.3637966
237	0x3e95daf2	0.29268605
238	0x3e9c4e1c	0.30528343
239	0x3ed8097d	0.4219474
240	0xbddfe481	-0.109322555
241	0xbe9b81f6	-0.3037259
242	0xbdc3e2c2	-0.09564735
243	0x3f2171b5	0.6306413
244	0x3e91d985	0.28486267
245	0x3e4b6d7f	0.19865988
246	0x3e706ee8	0.23479807
247	0xbe9eae87	-0.3099253
248	0xbe7646a3	-0.24050383
249	0xbe0347e5	-0.12820394
250	0x3dd1e475	0.10248653
251	0xbeb38b29	-0.35067108
252	0xbda6c6fb	-0.08143421
253	0x3f0224a5	0.50837165
254	0xbdeab50d	-0.11460314
255	0xbd2fa629	-0.042883072
